models/tmp.pth (torch_old, 423307 bytes, 16 tensors)

en1.weight f8 [200, 4]
000000 00 00 00 00 d6 34 ae bf 00 00 00 00 20 41 68 3f
       -0.05899685621261597 0.0029607415199279785
000010 00 00 00 80 90 8a dc bf 00 00 00 00 ed d4 c1 bf
       -0.4459573030471802 -0.13931047916412354
000020 00 00 00 80 19 63 c0 bf 00 00 00 00 ec e8 dd 3f
       -0.12802428007125854 0.46734142303466797
000030 00 00 00 c0 9d 7b d6 3f 00 00 00 40 42 f4 d0 3f
       0.35129493474960327 0.2649083733558655
000040 00 00 00 00 ac 2d ab 3f 00 00 00 80 a8 53 d0 3f
       0.053082823753356934 0.2551060914993286
000050 00 00 00 c0 10 35 d6 3f 00 00 00 c0 3c de d9 bf
       0.34698885679244995 -0.4041892886161804
000060 00 00 00 00 62 64 ce 3f 00 00 00 80 3e f3 ca 3f
       0.23743844032287598 0.21054822206497192
000070 00 00 00 80 46 de c0 3f 00 00 00 c0 90 38 d3 3f
       0.13178330659866333 0.30032747983932495
000080 00 00 00 40 d0 b4 db bf 00 00 00 c0 26 fa dd bf
       -0.4329109787940979 -0.4683930277824402
000090 00 00 00 00 9a 47 ba bf 00 00 00 00 35 09 cf 3f
       -0.10265505313873291 0.2424684762954712
0000a0 00 00 00 00 cd e0 dc 3f 00 00 00 80 62 17 dc bf
       0.4512207508087158 -0.4389272928237915
0000b0 00 00 00 40 87 c7 d3 3f 00 00 00 00 62 7f d4 bf
       0.3090532422065735 -0.32027482986450195
0000c0 00 00 00 80 c1 7a c8 bf 00 00 00 80 36 f5 ce bf
       -0.19124621152877808 -0.24185830354690552
0000d0 00 00 00 00 1f fb db bf 00 00 00 00 61 52 ca bf
       -0.43720221519470215 -0.20563900470733643
0000e0 00 00 00 00 19 9f ce 3f 00 00 00 00 53 78 c4 bf
       0.23923027515411377 -0.15992200374603271
0000f0 00 00 00 40 7d 7c d7 3f 00 00 00 80 5c 43 de 3f
       0.36697322130203247 0.4728614091873169
000100 00 00 00 80 8e 63 d1 3f 00 00 00 c0 46 49 d9 3f
       0.271701455116272 0.39509743452072144
000110 00 00 00 c0 41 39 d8 3f 00 00 00 c0 5e 25 de bf
       0.3784946799278259 -0.4710308909416199
000120 00 00 00 80 bf b3 c3 3f 00 00 00 40 5f d7 d7 3f
       0.15392297506332397 0.3725202679634094
000130 00 00 00 00 f7 15 de bf 00 00 00 00 c6 46 bc bf
       -0.4700906276702881 -0.11045491695404053
000140 00 00 00 00 00 4e 2b 3f 00 00 00 00 f0 fa 7f bf
       0.00020831823348999023 -0.007807672023773193
000150 00 00 00 00 b0 00 73 bf 00 00 00 00 92 6c dc 3f
       -0.004639327526092529 0.44412660598754883
000160 00 00 00 80 d6 f2 cd bf 00 00 00 00 a8 6d b9 3f
       -0.23397332429885864 0.09932947158813477
000170 00 00 00 00 55 03 b1 bf 00 00 00 00 9a 54 de 3f
       -0.06645709276199341 0.47391366958618164
000180 00 00 00 80 60 34 c0 bf 00 00 00 00 ee 22 ae 3f
       -0.12659841775894165 0.05886024236679077
000190 00 00 00 40 78 c0 da bf 00 00 00 80 71 4e d8 3f
       -0.41799741983413696 0.379787802696228
0001a0 00 00 00 00 72 45 bd bf 00 00 00 40 cd 06 d0 bf
       -0.1143409013748169 -0.2504151463508606
0001b0 00 00 00 00 40 76 db 3f 00 00 00 00 7a ee a0 bf
       0.4290924072265625 -0.0330694317817688
0001c0 00 00 00 c0 18 e6 d9 bf 00 00 00 40 d2 58 db bf
       -0.40466898679733276 -0.4272962212562561
0001d0 00 00 00 00 9b 6e dd bf 00 00 00 80 f9 0a cb bf
       -0.45987582206726074 -0.21127241849899292
0001e0 00 00 00 80 63 4f d0 3f 00 00 00 80 d7 c0 da 3f
       0.2548454999923706 0.4180201292037964
0001f0 00 00 00 c0 6e 52 da bf 00 00 00 c0 97 8a d2 bf
       -0.4112812876701355 -0.28970903158187866
000200 00 00 00 00 c6 46 b3 3f 00 00 00 40 46 e7 d3 bf
       0.07529866695404053 -0.3109908699989319
000210 00 00 00 00 12 fe b0 bf 00 00 00 00 0a 5f b2 bf
       -0.06637680530548096 -0.07176268100738525
000220 00 00 00 00 e6 f9 bb 3f 00 00 00 c0 8f f1 d8 3f
       0.10928189754486084 0.38974374532699585
000230 00 00 00 80 2d 47 c4 3f 00 00 00 00 5f db de 3f
       0.15842217206954956 0.48213934898376465
000240 00 00 00 c0 4a 8d d6 bf 00 00 00 00 96 1c af bf
       -0.35237377882003784 -0.060764968395233154
000250 00 00 00 80 12 70 c9 bf 00 00 00 00 ad 6a c0 bf
       -0.1987326741218567 -0.12825548648834229
000260 00 00 00 80 74 b0 d2 3f 00 00 00 40 44 4e d1 bf
       0.29201996326446533 -0.2704020142555237
000270 00 00 00 00 b4 c4 b8 bf 00 00 00 00 85 05 c2 3f
       -0.09675145149230957 0.14079344272613525
000280 00 00 00 80 5d 45 c3 bf 00 00 00 80 bc d4 c2 3f
       -0.150554358959198 0.14711719751358032
000290 00 00 00 80 0c 66 d1 bf 00 00 00 c0 a1 dd db bf
       -0.27185356616973877 -0.4354023337364197
0002a0 00 00 00 00 72 72 d3 bf 00 00 00 00 7c 9f de 3f
       -0.3038601875305176 0.4784841537475586
0002b0 00 00 00 40 43 dc db bf 00 00 00 80 33 38 cf 3f
       -0.4353187680244446 0.24390262365341187
0002c0 00 00 00 00 24 c3 9d bf 00 00 00 00 9e 23 cc 3f
       -0.029064714908599854 0.21983695030212402
0002d0 00 00 00 80 49 d2 c3 bf 00 00 00 00 d9 6a d5 bf
       -0.15485495328903198 -0.33464646339416504
0002e0 00 00 00 40 1b 00 d9 bf 00 00 00 40 c5 cf d9 3f
       -0.3906314969062805 0.4033063054084778
0002f0 00 00 00 00 47 8c c8 bf 00 00 00 80 d4 aa c5 bf
       -0.1917809247970581 -0.16927582025527954
000300 00 00 00 00 c0 a4 d6 3f 00 00 00 00 7e c1 c9 bf
       0.3538055419921875 -0.2012174129486084
000310 00 00 00 80 af eb de bf 00 00 00 c0 f7 1c df bf
       -0.4831351041793823 -0.4861430525779724
000320 00 00 00 80 8c d3 d4 bf 00 00 00 80 ff 7d d8 bf
       -0.32541191577911377 -0.38269031047821045
000330 00 00 00 80 43 71 db 3f 00 00 00 c0 a0 4f d8 bf
       0.42878806591033936 -0.3798601031303406
000340 00 00 00 80 f6 eb dd bf 00 00 00 00 50 13 a6 bf
       -0.46752703189849854 -0.043116092681884766
000350 00 00 00 80 11 2b c7 3f 00 00 00 80 85 78 d7 3f
       0.18100184202194214 0.36673104763031006
000360 00 00 00 00 97 c8 d7 bf 00 00 00 00 82 44 d9 bf
       -0.37161803245544434 -0.3948063850402832
000370 00 00 00 80 41 d1 c7 3f 00 00 00 00 a2 91 cc 3f
       0.18607348203659058 0.22319436073303223
000380 00 00 00 00 65 3e b2 3f 00 00 00 00 02 16 ae 3f
       0.07126456499099731 0.058761656284332275
000390 00 00 00 c0 0f c5 de 3f 00 00 00 40 eb 85 de bf
       0.48077768087387085 -0.47692376375198364
0003a0 00 00 00 00 d9 0f cd bf 00 00 00 80 a9 e3 d5 3f
       -0.22704613208770752 0.3420203924179077
0003b0 00 00 00 00 0b 98 cd 3f 00 00 00 00 b8 d8 d0 bf
       0.23120248317718506 -0.2632274627685547
0003c0 00 00 00 40 96 3a d4 3f 00 00 00 00 5f 1b b3 3f
       0.31607586145401 0.07463639974594116
0003d0 00 00 00 80 33 cc da bf 00 00 00 80 de 90 c0 bf
       -0.41871345043182373 -0.12942105531692505
0003e0 00 00 00 40 e2 58 d0 bf 00 00 00 80 ad 18 d1 3f
       -0.25542503595352173 0.2671312093734741
0003f0 00 00 00 80 84 fd da 3f 00 00 00 00 11 87 bd 3f
       0.42172348499298096 0.11534219980239868
000400 00 00 00 00 f7 1c c6 3f 00 00 00 c0 e2 a3 d8 bf
       0.17275893688201904 -0.3850027918815613
000410 00 00 00 00 ac 27 d1 3f 00 00 00 00 f2 ef b7 bf
       0.26804637908935547 -0.09350502490997314
000420 00 00 00 00 3b be c5 3f 00 00 00 c0 ec 36 d0 3f
       0.1698678731918335 0.2533523440361023
000430 00 00 00 40 e2 05 d7 3f 00 00 00 40 1d 74 d0 3f
       0.35973411798477173 0.2570870518684387
000440 00 00 00 40 e2 03 d0 bf 00 00 00 80 59 5f d3 3f
       -0.25023704767227173 0.3026946783065796
000450 00 00 00 00 c1 ff bf 3f 00 00 00 00 4a 1e de 3f
       0.12499624490737915 0.4705986976623535
000460 00 00 00 80 42 5f ca 3f 00 00 00 80 2f fa c7 3f
       0.20603209733963013 0.18732255697250366
000470 00 00 00 00 6c 8e ce 3f 00 00 00 80 bc 2f d6 3f
       0.23872137069702148 0.34666359424591064
000480 00 00 00 c0 b1 df d1 bf 00 00 00 00 35 d8 d8 3f
       -0.2792782187461853 0.3881962299346924
000490 00 00 00 40 aa b8 dd 3f 00 00 00 00 26 c4 a2 bf
       0.46439605951309204 -0.03665274381637573
0004a0 00 00 00 00 60 2b c7 bf 00 00 00 00 7a 71 a6 bf
       -0.18101119995117188 -0.04383450746536255
0004b0 00 00 00 00 14 f1 c6 bf 00 00 00 00 20 ca df 3f
       -0.17923212051391602 0.49671173095703125
0004c0 00 00 00 40 04 d0 dc bf 00 00 00 00 a4 ee de bf
       -0.4501963257789612 -0.48331546783447266
0004d0 00 00 00 40 22 70 dd 3f 00 00 00 00 8d ef b3 3f
       0.45996910333633423 0.07787400484085083
0004e0 00 00 00 00 18 70 c2 bf 00 00 00 00 70 8e bd bf
       -0.14404582977294922 -0.11545467376708984
0004f0 00 00 00 80 42 cf c8 bf 00 00 00 80 30 dd c9 bf
       -0.19382506608963013 -0.2020626664161682
000500 00 00 00 c0 96 bc dd bf 00 00 00 00 c0 a8 74 3f
       -0.46463555097579956 0.005043745040893555
000510 00 00 00 c0 6e 71 de bf 00 00 00 80 a8 b4 de bf
       -0.4756733775138855 -0.4797765016555786
000520 00 00 00 00 82 51 b0 3f 00 00 00 80 b8 e0 cb 3f
       0.0637437105178833 0.21779543161392212
000530 00 00 00 80 35 eb c9 3f 00 00 00 00 d7 2b db 3f
       0.20249050855636597 0.42455077171325684
000540 00 00 00 00 90 17 88 3f 00 00 00 00 55 ea c6 bf
       0.011763691902160645 -0.17902624607086182
000550 00 00 00 40 f2 d0 d2 bf 00 00 00 80 d4 9e d1 3f
       -0.29400306940078735 0.2753192186355591
000560 00 00 00 00 16 a9 c0 bf 00 00 00 00 4d cd da 3f
       -0.13016009330749512 0.4187805652618408
000570 00 00 00 c0 c7 1f dc bf 00 00 00 00 27 49 d6 bf
       -0.43943971395492554 -0.34821486473083496
000580 00 00 00 80 54 d4 de bf 00 00 00 00 5c 79 a2 3f
       -0.4817095994949341 0.03608214855194092
000590 00 00 00 00 bd 9c da bf 00 00 00 00 93 d2 de bf
       -0.4158165454864502 -0.48160243034362793
0005a0 00 00 00 80 dd 26 dc 3f 00 00 00 00 64 1b bb bf
       0.439872145652771 -0.10588669776916504
0005b0 00 00 00 40 75 58 d0 bf 00 00 00 80 bb c3 da 3f
       -0.25539904832839966 0.41819655895233154
0005c0 00 00 00 40 e2 b9 d7 bf 00 00 00 c0 d5 77 d9 3f
       -0.37072044610977173 0.39793914556503296
0005d0 00 00 00 00 24 9b b9 3f 00 00 00 c0 8a a5 d6 3f
       0.10002350807189941 0.35385388135910034
0005e0 00 00 00 00 82 d1 a0 bf 00 00 00 80 a3 55 dd 3f
       -0.03284841775894165 0.4583519697189331
0005f0 00 00 00 00 09 b9 b0 bf 00 00 00 00 52 02 d8 bf
       -0.06532341241836548 -0.37514162063598633
000600 00 00 00 00 ae 95 d5 3f 00 00 00 c0 4c 20 d5 bf
       0.33726072311401367 -0.33009642362594604
000610 00 00 00 00 6c 2e c9 3f 00 00 00 c0 a9 f0 d5 bf
       0.19672918319702148 -0.3428139090538025
000620 00 00 00 40 40 e8 d9 bf 00 00 00 c0 8e e5 d6 3f
       -0.4048004746437073 0.35776108503341675
000630 00 00 00 00 95 25 b7 3f 00 00 00 40 89 7d d9 bf
       0.09041720628738403 -0.3982871174812317
000640 00 00 00 40 ff d3 de 3f 00 00 00 40 f9 f4 d2 3f
       0.4816892743110657 0.29620200395584106
000650 00 00 00 40 b5 ef de 3f 00 00 00 00 09 4b db bf
       0.48338061571121216 -0.4264547824859619
000660 00 00 00 00 0f f3 b9 3f 00 00 00 40 b5 bc d3 3f
       0.10136502981185913 0.30839282274246216
000670 00 00 00 80 a9 c6 db 3f 00 00 00 00 37 d1 ba 3f
       0.4340003728866577 0.10475486516952515
000680 00 00 00 80 35 d2 c3 bf 00 00 00 00 78 bc dc 3f
       -0.15485256910324097 0.4490032196044922
000690 00 00 00 80 f2 d2 d8 bf 00 00 00 00 ea e4 a3 bf
       -0.38787519931793213 -0.03885585069656372
0006a0 00 00 00 40 87 5d d0 bf 00 00 00 80 db 0c d6 3f
       -0.2557085156440735 0.3445347547531128
0006b0 00 00 00 00 14 ac b8 bf 00 00 00 c0 6c ac d7 bf
       -0.09637570381164551 -0.3698989748954773
0006c0 00 00 00 80 be 8e c8 bf 00 00 00 c0 e9 7f d8 bf
       -0.19185620546340942 -0.382807195186615
0006d0 00 00 00 00 99 76 dd bf 00 00 00 c0 c9 10 d0 bf
       -0.46036362648010254 -0.25102466344833374
0006e0 00 00 00 40 29 d2 d1 bf 00 00 00 00 05 89 bf bf
       -0.27845221757888794 -0.12318450212478638
0006f0 00 00 00 40 e2 91 d3 bf 00 00 00 00 0a 03 c0 3f
       -0.30577903985977173 0.1250927448272705
000700 00 00 00 00 01 39 c5 bf 00 00 00 80 e5 96 d3 3f
       -0.16580212116241455 0.3060849905014038
000710 00 00 00 00 e5 52 dd 3f 00 00 00 80 5f 11 d2 bf
       0.45818448066711426 -0.2823103666305542
000720 00 00 00 00 78 6f 82 3f 00 00 00 00 ee e7 bc 3f
       0.009001672267913818 0.11291396617889404
000730 00 00 00 80 0c 66 dc bf 00 00 00 80 5e 12 c6 3f
       -0.44372856616973877 0.17243558168411255
000740 00 00 00 80 c8 f7 c2 3f 00 00 00 c0 a7 92 db bf
       0.14818674325942993 -0.4308261275291443
000750 00 00 00 80 ee 4d d7 bf 00 00 00 80 73 1d d0 bf
       -0.3641315698623657 -0.25179755687713623
000760 00 00 00 c0 24 ac d6 3f 00 00 00 00 7d 7d cc 3f
       0.354256808757782 0.22257959842681885
000770 00 00 00 40 12 fb dc 3f 00 00 00 c0 ac a4 dd bf
       0.4528241753578186 -0.4631759524345398
000780 00 00 00 40 22 a0 d4 bf 00 00 00 80 24 24 d9 bf
       -0.32227379083633423 -0.3928309679031372
000790 00 00 00 00 54 eb b3 3f 00 00 00 80 db 3d de bf
       0.07780957221984863 -0.4725254774093628
0007a0 00 00 00 00 90 1b ae bf 00 00 00 00 00 10 78 3f
       -0.05880403518676758 0.0058746337890625
0007b0 00 00 00 40 24 d3 db bf 00 00 00 40 f9 94 d9 3f
       -0.43476206064224243 0.39971762895584106
0007c0 00 00 00 40 5a ee d0 3f 00 00 00 00 e7 9c c7 3f
       0.2645478844642639 0.18447577953338623
0007d0 00 00 00 00 d1 28 d7 bf 00 00 00 00 04 cc d5 3f
       -0.3618662357330322 0.3405771255493164
0007e0 00 00 00 00 83 f1 dd bf 00 00 00 00 96 08 ca bf
       -0.4678657054901123 -0.20338702201843262
0007f0 00 00 00 c0 2b 7d dc bf 00 00 00 00 2a b1 c3 3f
       -0.4451398253440857 0.15384411811828613

en1.bias f8 [200]
000000 00 00 00 00 54 98 9c 3f 00 00 00 80 44 46 cb 3f
       0.027924835681915283 0.21308189630508423
000010 00 00 00 80 e4 d0 cf 3f 00 00 00 00 93 8a cf 3f
       0.24856239557266235 0.24641644954681396
000020 00 00 00 80 11 73 d5 3f 00 00 00 00 a0 55 7c bf
       0.3351482152938843 -0.006917595863342285
000030 00 00 00 c0 d6 17 d7 bf 00 00 00 c0 aa e4 d1 3f
       -0.36083000898361206 0.2795817255973816
000040 00 00 00 00 9c 96 d6 bf 00 00 00 40 e1 81 d6 3f
       -0.35294246673583984 0.3516772389411926
000050 00 00 00 00 21 22 bd 3f 00 00 00 00 1c c8 cf bf
       0.11380201578140259 -0.24829435348510742
000060 00 00 00 00 8a 47 dd bf 00 00 00 00 c0 9c a8 bf
       -0.457491397857666 -0.04807090759277344
000070 00 00 00 40 be be dc 3f 00 00 00 00 73 a9 d9 3f
       0.4491420388221741 0.4009673595428467
000080 00 00 00 00 43 36 ce 3f 00 00 00 c0 2b 7c dd 3f
       0.2360309362411499 0.4607037901878357
000090 00 00 00 40 08 31 d1 bf 00 00 00 00 6e 67 ca bf
       -0.2686176896095276 -0.20628142356872559
0000a0 00 00 00 00 e1 2f c0 3f 00 00 00 40 cd 46 d5 bf
       0.12646114826202393 -0.3324463963508606
0000b0 00 00 00 80 92 03 ca bf 00 00 00 80 90 b6 d9 3f
       -0.2032340168952942 0.4017678499221802
0000c0 00 00 00 00 c3 13 b9 bf 00 00 00 40 0d 00 da bf
       -0.0979577898979187 -0.4062531590461731
0000d0 00 00 00 00 82 a1 a8 bf 00 00 00 40 38 c9 d6 3f
       -0.04810720682144165 0.35603147745132446
0000e0 00 00 00 40 0d a3 d3 bf 00 00 00 c0 ac cf da 3f
       -0.3068268895149231 0.4189254641532898
0000f0 00 00 00 80 bf ef dc 3f 00 00 00 c0 4c a4 d0 3f
       0.45213305950164795 0.26002806425094604
000100 00 00 00 00 05 cf dd 3f 00 00 00 c0 52 03 d5 bf
       0.4657604694366455 -0.32832783460617065
000110 00 00 00 00 fc a2 91 3f 00 00 00 00 7b c8 b1 bf
       0.0172232985496521 -0.06946533918380737
000120 00 00 00 40 86 b4 d5 3f 00 00 00 40 72 db de 3f
       0.3391433358192444 0.48214393854141235
000130 00 00 00 00 00 c4 b8 bf 00 00 00 00 4f 2f c8 3f
       -0.09674072265625 0.1889437437057495
000140 00 00 00 40 9d c7 db 3f 00 00 00 80 d3 b5 ca 3f
       0.4340584874153137 0.208673894405365
000150 00 00 00 00 3c eb 99 bf 00 00 00 40 04 32 d8 3f
       -0.025311410427093506 0.3780527710914612
000160 00 00 00 80 82 7c ce bf 00 00 00 80 0b 90 cc 3f
       -0.23817473649978638 0.22314590215682983
000170 00 00 00 00 fa b4 b7 bf 00 00 00 00 ca 02 aa 3f
       -0.09260523319244385 0.050802528858184814
000180 00 00 00 00 26 9e d6 bf 00 00 00 80 59 74 d9 3f
       -0.35340261459350586 0.3977264165878296
000190 00 00 00 80 31 9d c6 3f 00 00 00 80 23 7d c3 3f
       0.17667216062545776 0.15225642919540405
0001a0 00 00 00 00 88 d5 d0 3f 00 00 00 80 8f 0c db 3f
       0.2630329132080078 0.4226416349411011
0001b0 00 00 00 80 f7 57 d4 3f 00 00 00 00 50 2e 76 3f
       0.31786906719207764 0.0054152607917785645
0001c0 00 00 00 00 ff 6d c4 3f 00 00 00 80 e9 f1 de 3f
       0.15960681438446045 0.4835151433944702
0001d0 00 00 00 00 5b 1d d1 bf 00 00 00 80 16 d0 d6 3f
       -0.26741671562194824 0.3564506769180298
0001e0 00 00 00 00 72 3f b7 3f 00 00 00 40 83 7f d4 bf
       0.0908118486404419 -0.3202827572822571
0001f0 00 00 00 00 04 ea 98 3f 00 00 00 00 41 66 d3 bf
       0.024330198764801025 -0.3031160831451416
000200 00 00 00 00 a8 02 93 3f 00 00 00 00 10 7c c7 3f
       0.018564820289611816 0.1834735870361328
000210 00 00 00 00 f0 ec 86 bf 00 00 00 80 83 cc dc bf
       -0.011194109916687012 -0.44998252391815186
000220 00 00 00 00 76 18 ab bf 00 00 00 00 10 62 80 bf
       -0.05292099714279175 -0.007999539375305176
000230 00 00 00 00 64 fc 98 3f 00 00 00 c0 de 7a d2 bf
       0.024400293827056885 -0.2887493968009949
000240 00 00 00 00 45 db c4 bf 00 00 00 00 f0 b9 78 bf
       -0.162941575050354 -0.006036698818206787
000250 00 00 00 00 21 e1 b9 3f 00 00 00 00 68 77 bb 3f
       0.10109144449234009 0.10729074478149414
000260 00 00 00 c0 60 1c dd bf 00 00 00 80 df 23 d3 3f
       -0.4548570513725281 0.2990645170211792
000270 00 00 00 00 17 e9 d3 bf 00 00 00 80 f5 16 da bf
       -0.31110167503356934 -0.40765130519866943
000280 00 00 00 00 a7 a9 d6 bf 00 00 00 80 7e 24 ce bf
       -0.35410475730895996 -0.23548871278762817
000290 00 00 00 00 00 4a 8a bf 00 00 00 00 a8 04 b2 bf
       -0.012836456298828125 -0.07038354873657227
0002a0 00 00 00 80 6c e1 df 3f 00 00 00 c0 18 a7 d3 bf
       0.4981337785720825 -0.30707377195358276
0002b0 00 00 00 00 34 6a b4 bf 00 00 00 00 36 7d a2 bf
       -0.07974553108215332 -0.036111533641815186
0002c0 00 00 00 80 4c c6 de bf 00 00 00 00 27 77 c0 bf
       -0.48085319995880127 -0.12863624095916748
0002d0 00 00 00 00 37 30 cb 3f 00 00 00 00 69 c7 be bf
       0.2124089002609253 -0.12023025751113892
0002e0 00 00 00 00 ce 06 a5 bf 00 00 00 00 98 6a 97 bf
       -0.041067540645599365 -0.022867560386657715
0002f0 00 00 00 80 72 00 cc bf 00 00 00 c0 7c 8b d9 3f
       -0.21876364946365356 0.3991386294364929
000300 00 00 00 40 f2 9f de 3f 00 00 00 00 d0 a1 7f bf
       0.47851234674453735 -0.007722675800323486
000310 00 00 00 00 56 74 dd bf 00 00 00 80 56 75 ce 3f
       -0.46022558212280273 0.23795586824417114
000320 00 00 00 00 6d 3d da bf 00 00 00 80 3b a8 db bf
       -0.40999913215637207 -0.43214309215545654
000330 00 00 00 00 44 2c ca bf 00 00 00 00 f9 d3 b5 3f
       -0.20447587966918945 0.08526569604873657
000340 00 00 00 00 d6 50 a7 3f 00 00 00 c0 82 5b d1 bf
       0.04553860425949097 -0.27121037244796753
000350 00 00 00 80 72 94 db bf 00 00 00 00 f4 91 ca bf
       -0.43093550205230713 -0.2075791358947754
000360 00 00 00 80 48 23 d6 3f 00 00 00 40 76 b2 d9 3f
       0.34590351581573486 0.40151745080947876
000370 00 00 00 80 ec 4b de bf 00 00 00 00 cf 8f bc bf
       -0.4733840227127075 -0.111569344997406
000380 00 00 00 00 7f d0 b9 bf 00 00 00 00 84 22 bd bf
       -0.10083764791488647 -0.11380791664123535
000390 00 00 00 c0 b9 94 db 3f 00 00 00 00 b8 5d b1 3f
       0.4309524893760681 0.06783628463745117
0003a0 00 00 00 40 c2 ae d7 3f 00 00 00 00 e8 6e 8f bf
       0.3700414299964905 -0.015348255634307861
0003b0 00 00 00 40 b5 fa d4 bf 00 00 00 00 d5 c5 bf 3f
       -0.32780200242996216 0.12411242723464966
0003c0 00 00 00 40 de 14 d4 bf 00 00 00 c0 5f 4c d1 bf
       -0.3137736916542053 -0.270286500453949
0003d0 00 00 00 80 6e 60 ce 3f 00 00 00 80 d2 54 d7 bf
       0.23731786012649536 -0.3645521402359009
0003e0 00 00 00 00 62 15 a4 bf 00 00 00 00 bc a4 d8 bf
       -0.039225637912750244 -0.3850545883178711
0003f0 00 00 00 00 0a 45 ac 3f 00 00 00 80 d5 12 d0 3f
       0.05521422624588013 0.2511495351791382
000400 00 00 00 40 01 a0 d9 3f 00 00 00 80 d5 22 c4 bf
       0.4003909230232239 -0.1573130488395691
000410 00 00 00 80 ad 55 c8 3f 00 00 00 80 28 77 c0 bf
       0.19011467695236206 -0.1286364197731018
000420 00 00 00 00 ec a0 c1 3f 00 00 00 00 50 09 b4 3f
       0.13772344589233398 0.07826709747314453
000430 00 00 00 40 e7 b6 dc bf 00 00 00 c0 c1 ff d1 bf
       -0.44866353273391724 -0.2812351584434509
000440 00 00 00 80 9a 8b df 3f 00 00 00 40 f1 4d dd 3f
       0.4928957223892212 0.45788222551345825
000450 00 00 00 40 27 d5 dc 3f 00 00 00 00 45 c2 c3 bf
       0.45050984621047974 -0.154366135597229
000460 00 00 00 40 9f fc d0 3f 00 00 00 00 a6 7b c5 bf
       0.2654188275337219 -0.16783595085144043
000470 00 00 00 00 1e 34 a6 3f 00 00 00 80 39 bc c7 bf
       0.04336637258529663 -0.18543165922164917
000480 00 00 00 00 01 a3 cc 3f 00 00 00 00 78 41 b1 bf
       0.22372448444366455 -0.06740522384643555
000490 00 00 00 00 d0 e0 d8 bf 00 00 00 00 30 30 d4 bf
       -0.3887214660644531 -0.3154411315917969
0004a0 00 00 00 c0 c8 51 de 3f 00 00 00 00 9c d3 b1 3f
       0.47374171018600464 0.06963515281677246
0004b0 00 00 00 c0 17 13 d8 bf 00 00 00 00 79 37 bf bf
       -0.37616533041000366 -0.12194019556045532
0004c0 00 00 00 40 58 fb d5 3f 00 00 00 00 40 28 d1 bf
       0.3434658646583557 -0.2680816650390625
0004d0 00 00 00 80 a6 cb df bf 00 00 00 00 d1 d9 c0 3f
       -0.4968048334121704 0.1316472291946411
0004e0 00 00 00 00 f8 5b 85 3f 00 00 00 00 2d 4f ba bf
       0.010429322719573975 -0.10277062654495239
0004f0 00 00 00 00 dc 17 d8 3f 00 00 00 40 ba 8a da 3f
       0.37645626068115234 0.41471725702285767
000500 00 00 00 c0 37 f8 d0 bf 00 00 00 00 18 f7 c0 bf
       -0.2651500105857849 -0.13254070281982422
000510 00 00 00 00 b2 21 c0 bf 00 00 00 80 47 8b ce bf
       -0.12602829933166504 -0.23862546682357788
000520 00 00 00 00 da 87 a1 bf 00 00 00 00 ff 75 c5 3f
       -0.03423959016799927 0.16766345500946045
000530 00 00 00 00 be ca a7 bf 00 00 00 00 51 f9 c8 bf
       -0.04646867513656616 -0.1951085329055786
000540 00 00 00 00 6b 73 d5 bf 00 00 00 c0 5f 74 d8 3f
       -0.33516955375671387 0.382102906703949
000550 00 00 00 00 db b7 c2 bf 00 00 00 00 38 0d c5 bf
       -0.14623582363128662 -0.16446590423583984
000560 00 00 00 80 d9 0f df 3f 00 00 00 00 c0 81 a5 bf
       0.4853423833847046 -0.04200553894042969
000570 00 00 00 00 28 4c b9 3f 00 00 00 00 87 17 c1 3f
       0.09881830215454102 0.13353049755096436
000580 00 00 00 00 56 67 c4 3f 00 00 00 c0 ce 64 d3 bf
       0.15940356254577637 -0.30302780866622925
000590 00 00 00 c0 99 fa d4 bf 00 00 00 80 45 a1 c3 3f
       -0.32779544591903687 0.15335911512374878
0005a0 00 00 00 40 d4 36 d9 3f 00 00 00 40 08 e2 d0 3f
       0.3939715027809143 0.2637959122657776
0005b0 00 00 00 00 db 82 b5 bf 00 00 00 80 e9 26 d3 bf
       -0.08402794599533081 -0.2992500066757202
0005c0 00 00 00 00 47 91 cf bf 00 00 00 00 19 f5 d2 bf
       -0.2466210126876831 -0.29620957374572754
0005d0 00 00 00 00 a9 28 d3 bf 00 00 00 80 56 fd c5 3f
       -0.29935669898986816 0.17179375886917114
0005e0 00 00 00 00 3c ab bf 3f 00 00 00 00 6c 6e a1 bf
       0.12370657920837402 -0.03404557704925537
0005f0 00 00 00 00 8d 89 c6 3f 00 00 00 00 32 e2 b0 bf
       0.17607271671295166 -0.06595146656036377
000600 00 00 00 c0 c2 c8 d7 bf 00 00 00 00 b9 38 b1 3f
       -0.37162846326828003 0.06727176904678345
000610 00 00 00 40 a0 af da 3f 00 00 00 00 cc 32 98 3f
       0.416969358921051 0.023631274700164795
000620 00 00 00 80 7c 71 dd 3f 00 00 00 80 8d fe ce bf
       0.46005165576934814 -0.24214333295822144
000630 00 00 00 40 78 fa d0 bf 00 00 00 40 62 92 dd bf
       -0.26528745889663696 -0.46205955743789673

en2.weight f8 [100, 200]
000000 00 00 00 c0 d0 d7 af 3f 00 00 00 80 bc fe 97 bf
       0.06219341605901718 -0.02343267947435379
000010 00 00 00 60 74 c6 a5 bf 00 00 00 40 7b ae b0 bf
       -0.04252971336245537 -0.06516237556934357
000020 00 00 00 20 21 5e ac bf 00 00 00 00 bc db 89 bf
       -0.05540565028786659 -0.01262614130973816
000030 00 00 00 a0 0a e0 af bf 00 00 00 80 24 4b 9c bf
       -0.06225617602467537 -0.02763039618730545
000040 00 00 00 00 2e 59 98 bf 00 00 00 e0 52 7d a3 bf
       -0.023777693510055542 -0.03806551918387413
000050 00 00 00 00 8b c2 8e 3f 00 00 00 80 aa e5 a3 3f
       0.015019498765468597 0.03886158764362335
000060 00 00 00 40 4d 0f a3 3f 00 00 00 00 44 da 62 bf
       0.0372261181473732 -0.002301342785358429
000070 00 00 00 c0 2b a4 a5 bf 00 00 00 00 0f 00 94 3f
       -0.04226814955472946 0.019531473517417908
000080 00 00 00 00 d4 d0 75 3f 00 00 00 80 02 65 95 3f
       0.005326107144355774 0.02089313417673111
000090 00 00 00 00 74 5c 82 bf 00 00 00 00 c6 46 78 3f
       -0.008965402841567993 0.005926869809627533
0000a0 00 00 00 20 2d f4 af bf 00 00 00 20 c1 67 b0 bf
       -0.062409792095422745 -0.06408316642045975
0000b0 00 00 00 20 32 92 b0 bf 00 00 00 00 ec 62 7d bf
       -0.06473077088594437 -0.0071744173765182495
0000c0 00 00 00 c0 f9 25 a4 3f 00 00 00 60 6d 8a b1 3f
       0.03935223072767258 0.06851848214864731
0000d0 00 00 00 00 0e 29 9c 3f 00 00 00 40 46 e2 a0 3f
       0.02750036120414734 0.032976336777210236
0000e0 00 00 00 c0 0f 09 ad bf 00 00 00 80 0c 6a a4 bf
       -0.056709758937358856 -0.039871588349342346
0000f0 00 00 00 80 de 1b ab 3f 00 00 00 e0 05 d5 b1 3f
       0.05294699966907501 0.06965672224760056
000100 00 00 00 00 13 d5 90 3f 00 00 00 00 1c ec 9e 3f
       0.016437813639640808 0.030197560787200928
000110 00 00 00 00 c2 de 85 3f 00 00 00 80 fe 62 a5 bf
       0.010678783059120178 -0.04177089035511017
000120 00 00 00 00 1a 7a 9e bf 00 00 00 60 b0 f7 b1 3f
       -0.02976265549659729 0.07018568366765976
000130 00 00 00 a0 0a 0f b1 bf 00 00 00 80 83 1e 9c 3f
       -0.06663576513528824 0.02746015042066574
000140 00 00 00 00 65 d5 ae bf 00 00 00 00 1d 8e a7 3f
       -0.06022182106971741 0.04600611329078674
000150 00 00 00 00 b2 9a a9 3f 00 00 00 80 45 12 a1 3f
       0.05000835657119751 0.033342525362968445
000160 00 00 00 00 28 90 8d 3f 00 00 00 20 6b c3 ad bf
       0.014435112476348877 -0.05813154950737953
000170 00 00 00 40 5a a9 a0 3f 00 00 00 80 03 93 a1 bf
       0.03254205733537674 -0.03432475030422211
000180 00 00 00 c0 f8 0e a2 3f 00 00 00 80 0d 76 95 3f
       0.03527047485113144 0.020958147943019867
000190 00 00 00 00 cc 15 a0 bf 00 00 00 00 2a 00 a9 3f
       -0.03141629695892334 0.04882937669754028
0001a0 00 00 00 40 b8 f8 ab 3f 00 00 00 60 2a ab b1 bf
       0.05463195592164993 -0.06901802867650986
0001b0 00 00 00 a0 a5 6e a8 bf 00 00 00 00 99 83 a0 3f
       -0.04771916940808296 0.03225401043891907
0001c0 00 00 00 00 26 92 79 bf 00 00 00 20 4f ba b1 3f
       -0.006242893636226654 0.06924910098314285
0001d0 00 00 00 00 90 71 90 3f 00 00 00 00 3c f5 76 bf
       0.01605820655822754 -0.005604967474937439
0001e0 00 00 00 80 a0 80 a1 3f 00 00 00 c0 15 14 aa bf
       0.034184470772743225 -0.05093448609113693
0001f0 00 00 00 00 e0 6b 68 bf 00 00 00 80 11 75 a5 bf
       -0.002981126308441162 -0.041908785700798035
000200 00 00 00 00 0b 1d 93 3f 00 00 00 00 82 39 7b bf
       0.018665477633476257 -0.006646640598773956
000210 00 00 00 80 8b 3a af bf 00 00 00 20 49 6d b0 3f
       -0.060993537306785583 0.0641675665974617
000220 00 00 00 c0 a2 7c a4 3f 00 00 00 00 0f 3d 81 bf
       0.0400133952498436 -0.008417241275310516
000230 00 00 00 00 d0 94 57 3f 00 00 00 80 5d cf a9 3f
       0.0014392882585525513 0.050410196185112
000240 00 00 00 40 48 48 95 bf 00 00 00 20 9c 3e af bf
       -0.020783547312021255 -0.06102455034852028
000250 00 00 00 00 b6 ee 95 3f 00 00 00 a0 07 0b a7 bf
       0.02141842246055603 -0.045006025582551956
000260 00 00 00 00 65 6f 9b 3f 00 00 00 40 3b e8 a7 3f
       0.026792123913764954 0.04669366031885147
000270 00 00 00 00 30 76 93 3f 00 00 00 c0 53 c9 a9 3f
       0.019005537033081055 0.05036412924528122
000280 00 00 00 60 21 8c b0 bf 00 00 00 00 d1 45 aa bf
       -0.06463821977376938 -0.05131390690803528
000290 00 00 00 c0 a6 09 a2 3f 00 00 00 c0 73 43 a5 bf
       0.0352298840880394 -0.041530244052410126
0002a0 00 00 00 c0 61 94 ab 3f 00 00 00 40 f0 63 af 3f
       0.0538664385676384 0.061309345066547394
0002b0 00 00 00 80 97 ae b1 bf 00 00 00 80 7f 3a a0 3f
       -0.06907030940055847 0.03169630467891693
0002c0 00 00 00 40 e8 00 ac 3f 00 00 00 00 dc 66 93 bf
       0.05469442158937454 -0.018947064876556396
0002d0 00 00 00 40 0c c4 a7 bf 00 00 00 00 c0 be 8c 3f
       -0.04641760140657425 0.014035701751708984
0002e0 00 00 00 00 a0 db 83 bf 00 00 00 c0 44 f6 b1 bf
       -0.009696245193481445 -0.07016400992870331
0002f0 00 00 00 80 3d e8 9b 3f 00 00 00 00 b3 a2 8d bf
       0.02725311368703842 -0.014470480382442474
000300 00 00 00 c0 54 03 a8 bf 00 00 00 00 50 5c 75 bf
       -0.04690041393041611 -0.005214989185333252
000310 00 00 00 80 0f 58 9f bf 00 00 00 c0 af 84 a6 3f
       -0.030609361827373505 0.04398106783628464
000320 00 00 00 80 d8 f7 a3 3f 00 00 00 c0 39 09 a0 bf
       0.039000287652015686 -0.03132038563489914
000330 00 00 00 00 b2 24 94 3f 00 00 00 00 70 47 aa bf
       0.019671231508255005 -0.05132627487182617
000340 00 00 00 80 87 b2 af bf 00 00 00 00 f8 1b 5e bf
       -0.06190894544124603 -0.0018377229571342468
000350 00 00 00 00 d3 3b a9 3f 00 00 00 e0 dc 35 af bf
       0.049284547567367554 -0.06095781549811363
000360 00 00 00 00 f0 96 77 bf 00 00 00 00 a2 6b a2 3f
       -0.005759179592132568 0.03597742319107056
000370 00 00 00 80 b1 a9 91 3f 00 00 00 00 c5 f4 92 3f
       0.017248891294002533 0.018511846661567688
000380 00 00 00 e0 d8 22 b0 3f 00 00 00 00 ff b4 9f 3f
       0.06303172558546066 0.03096388280391693
000390 00 00 00 00 a7 43 95 3f 00 00 00 80 eb 23 94 3f
       0.020765885710716248 0.019668273627758026
0003a0 00 00 00 00 0e 7b 8c 3f 00 00 00 80 fe 23 a4 bf
       0.013906583189964294 -0.03933711349964142
0003b0 00 00 00 c0 09 a9 aa bf 00 00 00 80 c1 58 92 3f
       -0.05207090824842453 0.01791670173406601
0003c0 00 00 00 40 10 1e 93 bf 00 00 00 00 3f 74 b0 bf
       -0.01866937056183815 -0.06427377462387085
0003d0 00 00 00 00 90 3e 71 3f 00 00 00 80 83 31 a1 3f
       0.004210054874420166 0.03358088433742523
0003e0 00 00 00 c0 93 17 aa bf 00 00 00 40 e2 07 ae bf
       -0.05096112936735153 -0.058653898537158966
0003f0 00 00 00 c0 03 24 a7 3f 00 00 00 60 8a 1d b0 3f
       0.045196644961833954 0.0629507526755333
000400 00 00 00 80 2f 60 93 3f 00 00 00 40 c9 71 91 bf
       0.018921606242656708 -0.017035622149705887
000410 00 00 00 c0 3e 24 a9 3f 00 00 00 40 77 a2 a5 3f
       0.04910465329885483 0.04225514084100723
000420 00 00 00 c0 9a 35 a3 3f 00 00 00 00 90 35 60 bf
       0.037518344819545746 -0.001978665590286255
000430 00 00 00 00 1a 45 7e 3f 00 00 00 c0 87 aa a4 bf
       0.007390119135379791 -0.04036354273557663
000440 00 00 00 00 92 73 77 bf 00 00 00 60 3c d2 b1 3f
       -0.005725450813770294 0.06961419433355331
000450 00 00 00 c0 f3 d4 af bf 00 00 00 00 48 f6 64 3f
       -0.062171570956707 0.0025588423013687134
000460 00 00 00 20 75 19 b0 bf 00 00 00 c0 95 15 a0 3f
       -0.06288845092058182 0.03141468018293381
000470 00 00 00 40 15 e8 ae 3f 00 00 00 80 d4 6f b0 bf
       0.06036440283060074 -0.06420639157295227
000480 00 00 00 00 3c 63 6e bf 00 00 00 80 33 c9 9a 3f
       -0.0037094280123710632 0.026158146560192108
000490 00 00 00 20 e7 af af bf 00 00 00 80 99 31 a8 3f
       -0.061888907104730606 0.04725341498851776
0004a0 00 00 00 00 4c bf 67 bf 00 00 00 00 56 11 7f 3f
       -0.0028988346457481384 0.007584892213344574
0004b0 00 00 00 c0 27 80 a3 bf 00 00 00 e0 bb 01 b1 3f
       -0.03808712214231491 0.06643270701169968
0004c0 00 00 00 60 ac 57 ae bf 00 00 00 c0 d0 24 93 bf
       -0.05926264449954033 -0.018695127218961716
0004d0 00 00 00 40 39 46 a3 3f 00 00 00 40 e4 2d ad 3f
       0.037645138800144196 0.05699075013399124
0004e0 00 00 00 40 ad 59 aa 3f 00 00 00 c0 f1 24 ab bf
       0.05146542936563492 -0.053016237914562225
0004f0 00 00 00 e0 59 fd b0 3f 00 00 00 80 19 03 a6 bf
       0.06636583060026169 -0.042992398142814636
000500 00 00 00 80 3d 77 9a 3f 00 00 00 00 4d 41 8b bf
       0.025845490396022797 -0.013308145105838776
000510 00 00 00 80 96 e3 92 3f 00 00 00 60 e9 84 b0 bf
       0.01844630390405655 -0.06452807039022446
000520 00 00 00 00 6e 9b 86 bf 00 00 00 c0 dc a4 a3 3f
       -0.011038646101951599 0.038367174565792084
000530 00 00 00 c0 b6 05 ae bf 00 00 00 a0 29 ea ae bf
       -0.0586373433470726 -0.06038026884198189
000540 00 00 00 00 50 f3 70 bf 00 00 00 20 e9 07 b2 3f
       -0.004138290882110596 0.07043320685625076
000550 00 00 00 00 c8 ab 8b 3f 00 00 00 c0 c1 a4 ad 3f
       0.013511240482330322 0.057897619903087616
000560 00 00 00 40 a4 41 a4 bf 00 00 00 80 e8 b9 99 3f
       -0.03956330567598343 0.025123246014118195
000570 00 00 00 00 f5 47 9e bf 00 00 00 00 bb 23 a9 bf
       -0.029571369290351868 -0.04910072684288025
000580 00 00 00 c0 37 1d ab bf 00 00 00 00 24 97 8c 3f
       -0.052957288920879364 0.013960152864456177
000590 00 00 00 40 2b 89 a3 bf 00 00 00 00 d7 da 88 3f
       -0.03815589100122452 0.012136153876781464
0005a0 00 00 00 40 eb f9 97 bf 00 00 00 80 26 00 9c 3f
       -0.023414302617311478 0.027344323694705963
0005b0 00 00 00 00 4c 70 72 bf 00 00 00 40 64 2d ab 3f
       -0.004501625895500183 0.053080685436725616
0005c0 00 00 00 80 eb 4b 99 3f 00 00 00 80 91 6b ab 3f
       0.024703674018383026 0.05355505645275116
0005d0 00 00 00 00 66 ad 77 bf 00 00 00 00 7b 23 91 3f
       -0.005780600011348724 0.016736909747123718
0005e0 00 00 00 00 fd ba 82 bf 00 00 00 c0 74 41 a2 3f
       -0.009145714342594147 0.03565564006567001
0005f0 00 00 00 40 c7 04 a1 3f 00 00 00 40 ef 33 ad 3f
       0.03323958069086075 0.057036854326725006
000600 00 00 00 00 d1 4d 91 bf 00 00 00 80 09 95 90 3f
       -0.01689840853214264 0.016193531453609467
000610 00 00 00 00 0c 26 8f 3f 00 00 00 00 54 6e 99 bf
       0.015209287405014038 -0.024834930896759033
000620 00 00 00 40 fa 4b ab 3f 00 00 00 00 02 da 7c 3f
       0.05331403762102127 0.007043845951557159
000630 00 00 00 40 0a 13 af 3f 00 00 00 00 96 07 87 3f
       0.060692138969898224 0.011244937777519226
000640 00 00 00 40 2d 60 a9 bf 00 00 00 c0 30 80 9f bf
       -0.04956189543008804 -0.0307624451816082
000650 00 00 00 c0 85 bb 93 bf 00 00 00 80 21 2f 8d bf
       -0.019270028918981552 -0.014250051230192184
000660 00 00 00 c0 f2 33 a9 3f 00 00 00 00 20 a0 75 bf
       0.04922445863485336 -0.005279660224914551
000670 00 00 00 60 1b 6a b0 3f 00 00 00 80 ae b5 a8 3f
       0.06411906331777573 0.0482611209154129
000680 00 00 00 00 0b 14 80 3f 00 00 00 00 ae 39 a7 3f
       0.007850728929042816 0.04536193609237671
000690 00 00 00 c0 7e 4c b0 bf 00 00 00 c0 a0 3c a0 bf
       -0.06366722285747528 -0.03171255439519882
0006a0 00 00 00 00 48 57 62 3f 00 00 00 80 ca f2 8e bf
       0.0022388845682144165 -0.015111524611711502
0006b0 00 00 00 00 70 6c 76 3f 00 00 00 c0 e3 87 a7 3f
       0.005474507808685303 0.04595863074064255
0006c0 00 00 00 c0 fc 8a 9d bf 00 00 00 a0 ee 87 a6 bf
       -0.028850506991147995 -0.044005829840898514
0006d0 00 00 00 00 54 20 8e 3f 00 00 00 60 84 a3 b1 3f
       0.014710098505020142 0.06890132278203964
0006e0 00 00 00 40 49 24 a9 3f 00 00 00 00 2f b4 91 3f
       0.0491049662232399 0.01728890836238861
0006f0 00 00 00 00 28 c9 55 bf 00 00 00 80 5e c6 99 3f
       -0.0013296976685523987 0.02517078071832657
000700 00 00 00 60 e9 73 b0 3f 00 00 00 c0 5e 84 a3 3f
       0.06426867097616196 0.038119278848171234
000710 00 00 00 00 32 ca 9b bf 00 00 00 c0 08 81 92 bf
       -0.027138501405715942 -0.01807035133242607
000720 00 00 00 20 96 03 b2 3f 00 00 00 00 76 52 81 3f
       0.0703672245144844 0.008458063006401062
000730 00 00 00 80 85 f0 94 bf 00 00 00 00 e0 43 33 bf
       -0.02044876664876938 -0.00029396265745162964
000740 00 00 00 00 73 0e 94 3f 00 00 00 80 85 dc a0 bf
       0.019586369395256042 -0.03293244540691376
000750 00 00 00 40 c2 6f a8 3f 00 00 00 00 1e c2 86 3f
       0.04772765189409256 0.011112436652183533
000760 00 00 00 80 5b de a7 bf 00 00 00 00 7c 46 67 bf
       -0.046618327498435974 -0.0028412267565727234
000770 00 00 00 00 1c 98 9b bf 00 00 00 e0 44 0a b0 3f
       -0.026947438716888428 0.0626566931605339
000780 00 00 00 60 3f c1 b0 bf 00 00 00 c0 9a c8 98 bf
       -0.06544872373342514 -0.024202745407819748
000790 00 00 00 80 94 26 9d 3f 00 00 00 00 f2 76 74 3f
       0.028467483818531036 0.004996247589588165
0007a0 00 00 00 a0 28 a5 a2 bf 00 00 00 00 80 17 98 3f
       -0.03641631081700325 0.023527145385742188
0007b0 00 00 00 80 2c a7 9c 3f 00 00 00 c0 3d f1 a0 3f
       0.0279814675450325 0.03309052437543869
0007c0 00 00 00 00 5b d3 88 3f 00 00 00 00 6a 99 84 3f
       0.012121878564357758 0.010058239102363586
0007d0 00 00 00 e0 b6 cc ac bf 00 00 00 00 b8 15 7a bf
       -0.05624934658408165 -0.006368368864059448
0007e0 00 00 00 00 6f 1c 9a bf 00 00 00 60 84 12 b0 3f
       -0.025499090552330017 0.06278254836797714
0007f0 00 00 00 c0 0f cd ac bf 00 00 00 00 c9 52 8e 3f
       -0.056251995265483856 0.014806337654590607

en2.bias f8 [100]
000000 00 00 00 00 9b e5 9c bf 00 00 00 00 cd b3 80 bf
       -0.02821962535381317 -0.008155442774295807
000010 00 00 00 40 57 7f ae 3f 00 00 00 c0 e2 14 a1 bf
       0.059565283358097076 -0.03336247056722641
000020 00 00 00 60 9c 64 a9 bf 00 00 00 20 d2 a7 b0 bf
       -0.049595724791288376 -0.06506074219942093
000030 00 00 00 00 38 c7 b0 bf 00 00 00 40 aa 3e a6 bf
       -0.06553983688354492 -0.043446846306324005
000040 00 00 00 c0 19 f4 ad bf 00 00 00 40 09 16 9a bf
       -0.05850296467542648 -0.025474686175584793
000050 00 00 00 40 81 0e ad bf 00 00 00 80 52 ca 9f bf
       -0.05675128847360611 -0.031045235693454742
000060 00 00 00 40 9b 9f ab 3f 00 00 00 00 20 2c 5e bf
       0.05395207554101944 -0.0018415749073028564
000070 00 00 00 80 32 eb 80 bf 00 00 00 80 a7 14 a8 3f
       -0.008261103183031082 0.04703257977962494
000080 00 00 00 80 b3 86 94 3f 00 00 00 00 d4 ab 6c bf
       0.020045094192028046 -0.0034999027848243713
000090 00 00 00 80 6e ae a1 bf 00 00 00 c0 27 e6 ad bf
       -0.03453393280506134 -0.05839657038450241
0000a0 00 00 00 40 ff 37 a9 bf 00 00 00 00 f6 2b 72 bf
       -0.04925534874200821 -0.00443645566701889
0000b0 00 00 00 00 eb 45 83 3f 00 00 00 a0 df d2 af bf
       0.00941070169210434 -0.06215571239590645
0000c0 00 00 00 20 92 d0 a6 bf 00 00 00 40 e4 5d ae 3f
       -0.0445600189268589 0.05931008607149124
0000d0 00 00 00 80 94 95 9e 3f 00 00 00 40 05 39 a4 3f
       0.02986747771501541 0.039497531950473785
0000e0 00 00 00 00 20 83 33 3f 00 00 00 80 4f 27 86 bf
       0.0002977326512336731 -0.010817166417837143
0000f0 00 00 00 80 48 f6 82 bf 00 00 00 00 cd 5a 8e 3f
       -0.009258810430765152 0.014821626245975494
000100 00 00 00 40 1e 1b a4 3f 00 00 00 40 b0 aa aa 3f
       0.03926939517259598 0.05208349972963333
000110 00 00 00 00 12 33 a9 bf 00 00 00 00 07 cd 9a 3f
       -0.04921776056289673 0.026172742247581482
000120 00 00 00 40 49 c5 ae bf 00 00 00 40 d7 6d 95 bf
       -0.06009892374277115 -0.0209268219769001
000130 00 00 00 40 8a c6 a9 3f 00 00 00 00 52 08 91 3f
       0.0503428652882576 0.016633301973342896
000140 00 00 00 00 7d f0 a1 3f 00 00 00 80 b6 92 9d 3f
       0.03503790497779846 0.028879977762699127
000150 00 00 00 00 be 4c a8 3f 00 00 00 40 0f 83 ad bf
       0.04746049642562866 -0.05764053016901016
000160 00 00 00 00 ae 23 8d 3f 00 00 00 40 94 43 a5 bf
       0.014228209853172302 -0.041531212627887726
000170 00 00 00 40 4d 92 af 3f 00 00 00 00 7f 7a 93 3f
       0.06166306883096695 0.01902197301387787
000180 00 00 00 20 50 a1 ae bf 00 00 00 e0 85 ff b0 3f
       -0.059824470430612564 0.0663989707827568
000190 00 00 00 00 d6 77 9a bf 00 00 00 00 c2 db 84 3f
       -0.02584776282310486 0.01018477976322174
0001a0 00 00 00 80 95 62 a7 bf 00 00 00 80 7d fa a6 3f
       -0.04567401111125946 0.044879838824272156
0001b0 00 00 00 c0 f4 a5 ae 3f 00 00 00 00 57 41 99 3f
       0.05985989421606064 0.02466331422328949
0001c0 00 00 00 60 f4 a2 b1 3f 00 00 00 80 8b 83 94 3f
       0.06889273971319199 0.020033054053783417
0001d0 00 00 00 c0 2c cd 92 bf 00 00 00 a0 a2 98 ae bf
       -0.01836080476641655 -0.0597582645714283
0001e0 00 00 00 00 e3 a7 b0 bf 00 00 00 00 fa 9f 71 3f
       -0.06506174802780151 0.004302956163883209
0001f0 00 00 00 00 73 17 a7 3f 00 00 00 40 6d 1f 93 bf
       0.045100778341293335 -0.018674571067094803
000200 00 00 00 e0 28 0c b2 3f 00 00 00 80 43 98 89 bf
       0.0704980418086052 -0.012497451156377792
000210 00 00 00 80 76 0c a5 3f 00 00 00 20 15 f6 ac bf
       0.04111070930957794 -0.05656496062874794
000220 00 00 00 c0 d1 b7 a0 3f 00 00 00 80 4a 6d a7 3f
       0.03265243023633957 0.04575569927692413
000230 00 00 00 00 7b 48 8d 3f 00 00 00 60 36 c2 b1 3f
       0.014298401772975922 0.06936969608068466
000240 00 00 00 20 b3 98 b0 3f 00 00 00 80 d2 2e 88 bf
       0.06483001261949539 -0.011808056384325027
000250 00 00 00 80 33 a7 97 3f 00 00 00 c0 f7 72 ab bf
       0.023098759353160858 -0.05361150950193405
000260 00 00 00 c0 d9 e2 ae bf 00 00 00 80 c5 7f aa bf
       -0.06032448261976242 -0.05175606906414032
000270 00 00 00 20 ad c2 b1 bf 00 00 00 00 ac bc ac bf
       -0.06937677413225174 -0.056126952171325684
000280 00 00 00 00 67 05 8a 3f 00 00 00 a0 e2 f3 ae bf
       0.012705616652965546 -0.06045444682240486
000290 00 00 00 c0 71 55 a4 3f 00 00 00 a0 39 ea b0 bf
       0.03971438854932785 -0.06607399135828018
0002a0 00 00 00 00 20 90 ae bf 00 00 00 00 7e 41 79 3f
       -0.059693336486816406 0.0061659738421440125
0002b0 00 00 00 20 ae 3b a8 bf 00 00 00 00 a1 54 9f bf
       -0.04733032360672951 -0.03059627115726471
0002c0 00 00 00 80 af 8f ac bf 00 00 00 00 14 31 a6 bf
       -0.05578373372554779 -0.043343186378479004
0002d0 00 00 00 80 c8 b8 83 bf 00 00 00 a0 42 35 a6 bf
       -0.009629789739847183 -0.04337509348988533
0002e0 00 00 00 20 3a 3f a1 bf 00 00 00 c0 02 a3 95 bf
       -0.033685509115457535 -0.021129649132490158
0002f0 00 00 00 60 0f 2a a5 bf 00 00 00 80 b8 cc b1 bf
       -0.04133651778101921 -0.06953004002571106
000300 00 00 00 00 43 b1 81 3f 00 00 00 c0 5d a7 a0 3f
       0.008638881146907806 0.032526902854442596
000310 00 00 00 e0 e7 9a aa bf 00 00 00 00 7e 74 a3 3f
       -0.05196308717131615 0.03799813985824585
